models/11_22_16_36/best_model.pth (torch, 69487 bytes, 104 tensors)

lin1.weight f4 [16, 9]
00000000: 1d2f 7f3e 3f12 a3be a286 243e 853e 3b3e
00000010: e627 a43e ec2c 81be f653 d9bd a8df 9f3e
00000020: 8754 5dbd 71f7 483e cc96 14be 33e6 023e
00000030: 5d78 07be e94a 633e 9ca5 9ebe ef69 97be
00000040: 382a e53d ce82 43bc ef40 a73e 8601 47be
00000050: 73ba 363e 7cda cb3d a723 86be f2a5 35bd
00000060: b286 97bc bbf1 b83d 0193 4abe ac0d 4c3e
00000070: 6010 693d 546f f63c d555 e03d 1634 723e
00000080: 09f6 88be 2732 42be 2930 e63d 92a7 4b3e
00000090: e26f 2d3e a2a9 eabc 1d73 963e 059b 813e
000000a0: bb69 943e cb27 c7bd 4321 6abd b431 0abe
000000b0: 01bc 2ebe f446 423c c21a 84bc 805a 3fbc
000000c0: 9f2a c9bb 1424 48be b318 85be 7dd7 3d3e
000000d0: 06ca 153e 9d8b a5bc aba8 a3be 5a08 1b3e
000000e0: dc04 263e 04ca 6e3e f537 9fbe b626 a93d
000000f0: d447 c73c d117 cfbd b4f0 95be cc68 96bd
00000100: 5ed8 86be c275 81be 88e4 5a3e 30a2 89be
00000110: 1bcb 733e 0111 8b3d e156 60be dcef 683c
00000120: c50c da3d 65f5 323e 8a54 e6bd fc12 083d
00000130: d9fa 9b3e ed1c 2e3e 8653 2ebe 8457 b1bc
00000140: 4b40 c1bd 2557 10be 1199 303e 1379 8f3e
00000150: 7f64 81bc 7941 943e 045f b8bc 18a4 fb3d
00000160: b624 a2be 7e9a 773e fa95 783d 0699 1bbe
00000170: 0da4 1abe 243a 073e 68d8 003e 23cd 983e
00000180: 1d65 79be 8719 03be 1eae 16be 76a8 473e
00000190: 3dab 7cbe 2b1f 4e3d 6229 54be 453a 923e
000001a0: c3c9 a63e f0b2 f4bd 8e00 e1bd 21a9 19be
000001b0: 7cd0 2cbe fb5d d03d 01be 65be e463 c6b8
000001c0: 1264 69be e0e0 833e 2527 ccbd 47c1 1d3e
000001d0: fd8e d73d db10 6ebd b210 34bd 1e50 c73d
000001e0: 416b ff3d c0ab 96bd 2d81 9b3d e566 b03c
000001f0: b9d7 473e bb84 6fbd 23c6 91bd 7dfd 553d
00000200: 5577 ab3e b8e8 8abe 8540 a6be 4f56 8bbe
00000210: 7ebe a53d a971 8cbe fd19 fa3c 8e06 aabe
00000220: 815b 3f3e ed33 29be 32dd eebd 025e 9cbe
00000230: 6fdd 7fbe ee03 46be 098e 783e 9853 f13d
0.24920316 -0.31849858 0.16066983 0.18285568 0.3206169 -0.25229585 -0.106117174 0.31225324
-0.05403569 0.19625641 -0.1451065 0.12783127 -0.13229509 0.22196545 -0.30985725 -0.29573008
0.11189693 -0.011933042 0.32666728 -0.19434175 0.17844562 0.09953782 -0.26199076 -0.04434771
-0.018496845 0.090304814 -0.1978264 0.1992709 0.056900382 0.030082382 0.10953871 0.23652682
-0.2675021 -0.18964444 0.112396546 0.19888142 0.16937211 -0.02864534 0.293847 0.25313583
0.28986916 -0.09724387 -0.057160627 -0.13495523 -0.17063905 0.011857737 -0.01612604 -0.011679292
-0.006139114 -0.19545013 -0.25995407 0.18539234 0.14627847 -0.020208174 -0.3196462 0.15139905
0.16212791 0.2331925 -0.3109738 0.08259337 0.024326243 -0.101119645 -0.29285204 -0.07344207
-0.2633695 -0.25285155 0.2137624 -0.26881552 0.23807947 0.067903526 -0.21908142 0.014217343
0.10646967 0.17476423 -0.11246593 0.03322123 0.3046482 0.17003222 -0.17024049 -0.021648176
-0.09436091 -0.14095743 0.1724589 0.2802206 -0.01579499 0.28956202 -0.022506244 0.12287158
-0.31668633 0.24180028 0.060689904 -0.15195093 -0.15101643 0.13205773 0.12582552 0.29844007
-0.24354978 -0.12802707 -0.14714858 0.19497856 -0.24674697 0.050322693 -0.20718911 0.2856008
0.32575807 -0.11948192 -0.10986434 -0.15005924 -0.16876405 0.10174175 -0.22435762 -9.459982e-05
-0.2279208 0.25757504 -0.09968404 0.1540576 0.1052532 -0.058121543 -0.043961234 0.09732078
0.12471629 -0.073569775 0.07592998 0.021533439 0.19515885 -0.05847619 -0.0711787 0.0522437
0.3348948 -0.27130675 -0.324711 -0.27214286 0.08092974 -0.27430466 0.03052997 -0.33208126
0.1868725 -0.16523714 -0.116632834 -0.30540472 -0.24986814 -0.19337437 0.24272932 0.11783522

lin1.bias f4 [16]
00000000: 16a8 fb3b ad01 de3c 0471 a13e 6de4 ba3d
00000010: 0e4d 1bbe 549e f23d e81f 49be 08a6 8a3c
00000020: 7d32 9fbd ff7b a93e 796c fa3d b3d0 ffbd
00000030: bc9b 893e 5fa0 373e da93 1dbe 708c 88bd
0.0076799495 0.027100408 0.31531537 0.091256 -0.15166113 0.11846605 -0.19641078 0.016924873
-0.07773302 0.33102414 0.12227721 -0.12490978 0.26876628 0.1793227 -0.15388432 -0.06667411

conv_layers.0.std_layer.att_src f4 [1, 1, 16]
00000000: c057 b93d 7d3a ecbe 47ce e53e b7ae 133f
00000010: 4f49 ed3e 8812 103f d5bd 96be d322 c4be
00000020: 35a4 983e fd3f 003f 9377 9fbe 8ea5 d2be
00000030: 31f5 37bc 0f6a 3f3e cddf 2cbe 262b 26be
0.0904994 -0.46138373 0.4488394 0.5768847 0.46344993 0.56278276 -0.29441705 -0.3830782
0.2981278 0.5009764 -0.31145915 -0.41141933 -0.011227892 0.18692802 -0.16882248 -0.16227397

conv_layers.0.std_layer.att_dst f4 [1, 1, 16]
00000000: f29a 003c 2690 3c3d 300c 62be 882c d9be
00000010: d568 203e 2f23 a83d 3fb3 a8be 2da7 a93e
00000020: fbf3 d33e 7308 023f ad2a aebe 3490 0d3f
00000030: 5813 c83e 9732 033e 11b5 cabe bc52 0f3f
0.007849442 0.04603591 -0.22074962 -0.42416787 0.1566499 0.08209836 -0.32949254 0.33135357
0.4139708 0.5079414 -0.34016934 0.5529816 0.39077258 0.12812267 -0.39591268 0.5598562

conv_layers.0.std_layer.att_edge f4 [1, 1, 16]
00000000: e7f1 e03e 849e be3e a608 acbe cab2 8c3e
00000010: 7135 2b3e 3673 aabd b23d e73e fc90 503e
00000020: 5e26 f73e 991f f0be e14c b8bd 8ac4 073f
00000030: 5ef5 c63e 9ce7 563e 190d fdbe bcd3 f3be
0.43934557 0.37230313 -0.33600348 0.27480155 0.16719605 -0.08322756 0.45164257 0.20367807
0.4827146 -0.46899107 -0.089990385 0.5303427 0.38859075 0.2098679 -0.49424055 -0.47622478

conv_layers.0.std_layer.bias f4 [16]
00000000: 00d6 a33b 7fd6 a33b dbd6 a33b d3d6 a33b
00000010: bed6 a33b 15d5 a33b 84b2 a2bb 73d6 a33b
00000020: b7d6 a33b a0d6 a3bb 8fd6 a3bb b0d5 a3bb
00000030: add5 a33b 1dd2 a33b 13d6 a3bb dad5 a3bb
0.004999876 0.004999935 0.004999978 0.0049999743 0.0049999645 0.0049997666 -0.0049651284 0.0049999296
0.0049999612 -0.0049999505 -0.0049999426 -0.004999839 0.0049998374 0.0049994127 -0.004999885 -0.0049998583

conv_layers.0.std_layer.lin.weight f4 [16, 16]
00000000: 505b 323d 4dbf 65be 89e4 b8be b556 643d
00000010: df7b 48be 9fab d13e 8541 a63e 40e0 9f3e
00000020: ab87 da3d c75c c33e 5300 d13c 1974 15be
00000030: f78f c5be 5f5d e3bd 6377 c1bd 63ca 703e
00000040: f54c 16be b881 8ebd 9e50 613e 1721 a43e
00000050: 7113 213c 3070 d23e d5ea 6abd 6d40 d23e
00000060: d2ec 62b8 fd7f c8be f318 b4be 1f98 2a3e
00000070: 615a bdbe 0d45 073d a36a 90be 9474 6c3e
00000080: e0f6 bf3e c18c c53d 1c20 9c3e 60e9 383e
00000090: 1db4 a63e 691a 9b3d fa93 b43e e585 1e3e
000000a0: 3ab2 a03e f6f9 9b3e 6ea7 77bc e84b 1dbe
000000b0: 471f 8b3e bb1b d6bd 266a a3be 61be 7f3d
000000c0: ae82 843d 6552 be3e 8d89 26be 0294 363e
000000d0: 377d db3c 2b4c c6bc 47a7 d23d f94a 533e
000000e0: c0aa 5e3e a2d7 63be 5b4a 9fbe 57b2 80be
000000f0: 6531 c33e d631 b43d 3590 823e 45f2 6fbe
00000100: 91e7 863e 4530 373e 4a1c 323e 1141 fd3d
00000110: 3de1 9c3e e6c9 da3e 44d8 4dbe 0ee3 80be
00000120: 1487 aebe d5a9 813e c3e0 35be 672f 283e
00000130: a525 fc3c f6cc eb3d bb77 c8bc 16e8 c63e
00000140: a517 323e 72fe c63d a0f1 823d d1a8 c03e
00000150: 2289 87bc 9859 c3be 648b 413e d30c b8be
00000160: ede8 f5bc 9ad1 dabe 79ff e33c c221 043e
00000170: b8f2 f23d eda4 b43e e032 d43e 1d48 59bd
00000180: 4c8f 97be 6906 133d 658c 903d 3562 8bbe
00000190: cb28 87be 5443 d2be c2ef 383e d146 973d
000001a0: a070 8dbe 84e2 d03e f795 81be 821d 86be
000001b0: fc0f 493e 5741 c73e 0085 cc3e 8db6 26be
000001c0: af28 d93e 7c96 853e bf37 afbe fc84 3f3e
000001d0: 91cf 81be c12f 653d 7918 853e ca56 9ebd
000001e0: 2618 58be ecac 13be 3d69 56bd d064 87be
000001f0: 413b 8bbe 7ef7 edbc 3f01 94bd bce5 c7be
00000200: c3ca 983d 4e01 733e 66a7 9f3e 3851 de3e
00000210: 455a a0bd b34b 8c3e c6ab 443e 6389 a13d
00000220: 9c62 a5bd e50f acbd 8822 203e 4bb6 853e
00000230: c9b7 d53e 50cc d03d d9e3 fa3d 0dc3 a7be
00000240: f34b 95bd 58bb 2c3e 9229 cb3d 05ea 9e3e
00000250: 842a 24be 8280 d13d ee4e 6dbe 10e8 8d3e
00000260: 05a2 bcbe 68fb ad3e 7362 1abe 0c98 1b3e
00000270: 1fc6 bdbe 5bed 133e f9c8 063e a78b 70be
00000280: 2d74 5a3d acc4 7dbe 67d8 94be 67b7 953e
00000290: 15b2 413e 507a 7bbe f6f7 103e eeda d6be
000002a0: e315 f83b dec7 87bd d408 433e f073 cdbe
000002b0: 71c6 cf3e 724d d6ba 72b4 95bb 1aed 413e
000002c0: 33ce 2f3e 2d0e 4dbe 4baa 913e bb1f 533e
000002d0: d72d 433e bda0 3ebe 2658 593e 0b4f 0cbd
000002e0: ced2 02be 46d8 42be b32c a73e 6e73 e93d
000002f0: 61de 11be 135a e93d 3a9f 0c3e 7f35 36bc
00000300: f0f6 8fbe d03c cdbd c4bd d43e 527b 5b3e
00000310: c4b9 d8bd 2747 89be 4c1d 873e 8c6c a3bd
00000320: f1d1 8f3e e64f 343c 6840 953d 0ebb 18bd
00000330: f619 d3bd 7dab e93c 752e 793b 4e03 913e
00000340: 8636 29be 2734 c5be 7266 d83e 74f9 263e
00000350: 1fa5 c73e 52c1 c3be 02d9 bb3e c31b 5dbd
00000360: 150c 4dbd 8c74 54bd 4e85 cebe 9c7f 7b3e
00000370: d17f b03e a812 d5be dccd 66bd a003 ac3e
00000380: 9270 b9be 7a3a 5ebe 42a8 1f3e afab bd3d
00000390: 9c4b c93d 176f 09be f469 c4be d334 023e
000003a0: e05b c33e 7866 e53d a40f 61be 19b6 bebe
000003b0: 70a6 c1be d746 f23b d236 b5be b4d0 80be
000003c0: 4f5e 1bbe 13b5 5fbe 89f4 ffbd 5c88 7fbe
000003d0: d44b 803d 8a8a c83e 30a0 8f3e 45b1 143e
000003e0: 02b4 54be a8f3 94be c9a9 dabe 6403 45be
000003f0: 3a9d 443e 7436 50be 2652 00be dcad babd
0.043544114 -0.22436257 -0.36111858 0.055746753 -0.19578503 0.4095125 0.32471862 0.31225777
0.10670408 0.3815672 0.02551285 -0.14595069 -0.385864 -0.111017935 -0.09446599 0.23514704
-0.14677794 -0.06958336 0.2200341 0.32056496 0.009831295 0.41101217 -0.05735286 0.41064778
-5.4103155e-05 -0.39160147 -0.35175285 0.16659592 -0.36983016 0.033024836 -0.28206357 0.23091346
0.37493038 0.09645987 0.30493248 0.18057775 0.3255929 0.07573397 0.35269147 0.15480764
0.31385976 0.30464143 -0.015115602 -0.15360987 0.271723 -0.10454508 -0.31916922 0.06243742
0.06470238 0.37172237 -0.16263409 0.17829898 0.026793106 -0.024206242 0.10285812 0.20634069
0.21744823 -0.22250226 -0.31111416 -0.25136063 0.38123623 0.08798568 0.25500646 -0.23432262
0.26348546 0.17889507 0.17393604 0.12365926 0.30640593 0.4273216 -0.2010203 -0.2517323
-0.3408743 0.25324884 -0.17761521 0.16424333 0.030779669 0.115137026 -0.024471154 0.38848943
0.17391832 0.097165 0.063937426 0.37628797 -0.016544882 -0.38154292 0.1890083 -0.35947284
-0.030018294 -0.42738038 0.02783178 0.12903503 0.11862701 0.35282078 0.41445065 -0.05304729
-0.29601514 0.035894785 0.07058028 -0.27223364 -0.2639831 -0.41066992 0.1806021 0.07386554
-0.2762499 0.40797818 -0.25309727 -0.26194388 0.19635004 0.38917038 0.3994522 -0.16280575
0.42413852 0.26091373 -0.34222218 0.18703073 -0.25353673 0.055953745 0.25995234 -0.077313974
-0.21102962 -0.14421433 -0.052346457 -0.264441 -0.27193645 -0.029048678 -0.072268 -0.3904246
0.07460549 0.23730966 0.31182402 0.4342134 -0.078297175 0.27401504 0.19206151 0.078875326
-0.08075449 -0.08401469 0.15638173 0.2611564 0.4174178 0.101952195 0.1225049 -0.32766
-0.07289877 0.16868341 0.09920038 0.31037918 -0.16031843 0.10229589 -0.2317464 0.27716112
-0.3684236 0.3398087 -0.15076618 0.1519472 -0.37065217 0.14446013 0.13162602 -0.23490773
0.05333345 -0.24782056 -0.29071352 0.29241487 0.18915589 -0.24558377 0.1415709 -0.41963905
0.0075709685 -0.066299185 0.19046336 -0.40127516 0.40581086 -0.0016349985 -0.00456863 0.18938103
0.17168503 -0.20024939 0.28450236 0.20617573 0.19060455 -0.18616004 0.21225032 -0.03425507
-0.12775728 -0.19027814 0.3265129 0.113989696 -0.14244987 0.113941334 0.13732615 -0.011121153
-0.28118086 -0.10021365 0.4155103 0.21433762 -0.10582307 -0.26812097 0.2638954 -0.07979688
0.2808986 0.011005377 0.07287675 -0.037287764 -0.10307686 0.028524155 0.0038022075 0.28322834
-0.16524705 -0.38516352 0.4226566 0.16306096 0.38993165 -0.3823343 0.36689 -0.053981554
-0.05006035 -0.05186896 -0.40336078 0.24560398 0.34472516 -0.41615796 -0.056348667 0.33596516
-0.36218697 -0.21701995 0.15591529 0.09261262 0.098288745 -0.13421284 -0.38362086 0.12715463
0.38156033 0.11201185 -0.21978623 -0.37248304 -0.37822294 0.0073936987 -0.35393387 -0.25159228
-0.15172695 -0.21846418 -0.12497813 -0.2495436 0.06264463 0.39168197 0.280519 0.14520748
-0.20771793 -0.29092145 -0.4270766 -0.19239575 0.19200602 -0.20333272 -0.12531337 -0.09115192

conv_layers.0.std_layer.lin_edge.weight f4 [16, 2]
00000000: e538 3d3e b87f 46be 5664 b63d 2d5a f4be
00000010: 81c4 afbe 0fa9 f6be fc11 aa3e cda8 7abe
00000020: 6f54 ebbe a551 01be b67e 17bd fcab 3a3e
00000030: 1424 09bf 3d4a f33e 59d4 d83e 24a6 0e3f
00000040: cf12 ef3d 26c7 d73e 3c9b fc3e 0553 083d
00000050: 7610 ad3e d58d 4d3e 1ea9 c8be ff6b f83e
00000060: 7e4c 2abe b1e9 57be 2caa c8bc 3039 ab3e
00000070: 329f 0bbe d5c9 763e 2d75 11bf f340 483e
0.18478735 -0.19384658 0.08905856 -0.4772505 -0.34329608 -0.48175856 0.33216846 -0.24478455
-0.45962855 -0.12628801 -0.036986075 0.1822967 -0.53570676 0.47517577 0.42349508 0.5572226
0.11673509 0.42144126 0.49337184 0.0332823 0.3380162 0.20073636 -0.39191526 0.48519894
-0.16630742 -0.2108524 -0.024495207 0.33442068 -0.13634947 0.2410043 -0.5681942 0.19556026

conv_layers.0.skip_layer.att_src f4 [1, 1, 16]
00000000: 1b43 933e 4e1c 24bd f240 12bf ae88 adbd
00000010: dc75 263e 7d35 f23e f22c c6bd 50d1 aabe
00000020: 8337 9cbc a392 253e 0837 ccbe ebb6 14bf
00000030: 5b64 03bf 9381 293e 59d2 223e 54e3 3dbc
0.28762135 -0.040066056 -0.5713035 -0.08473335 0.16255897 0.47306433 -0.096765414 -0.33362818
-0.019069439 0.16169219 -0.39885736 -0.5809161 -0.51325005 0.16553335 0.15900554 -0.011589844

conv_layers.0.skip_layer.att_dst f4 [1, 1, 16]
00000000: a254 3ebe 0203 2bbe 0541 fe3d effc a73e
00000010: 65fc 6e3e 87dd df3e 3ad8 583e 6e59 e83e
00000020: 3bb3 e23d 1959 643e 122b cdbe 232a ac3e
00000030: 92b0 94bd e47b 653d d41c 043f aebf 09bf
-0.18586972 -0.16700366 0.12414745 0.3281016 0.23338468 0.437237 0.21176234 0.4538073
0.11069342 0.22299613 -0.40071923 0.33625898 -0.072602406 0.056026354 0.5160649 -0.53808105

conv_layers.0.skip_layer.att_edge f4 [1, 1, 16]
00000000: 493d 133e 0e81 b6bd bb45 4d3d 7b4d 163f
00000010: e1f2 60be a4dd c63e 738c a23e d4e9 723e
00000020: f2c6 28be 5f3b 863e 7551 8e3e a88d 03bf
00000030: fad3 1ebe 719f 853e 46c2 0f3f c70d ec3e
0.14378847 -0.08911334 0.05011533 0.58711976 -0.21967651 0.38840973 0.3174778 0.23722011
-0.16482142 0.26217172 0.27796522 -0.51388025 -0.1551055 0.26098207 0.5615581 0.4610426

conv_layers.0.skip_layer.bias f4 [16]
00000000: 34d5 a33b 59d5 a3bb 8cd6 a3bb c9d5 a3bb
00000010: 23d6 a33b b9d6 a33b 9bd6 a33b abd6 a3bb
00000020: ced6 a33b 87d6 a3bb 80d6 a3bb bed6 a3bb
00000030: 92d2 a3bb 4dd6 a3bb 63d5 a33b d4d6 a3bb
0.004999781 -0.0049997983 -0.004999941 -0.0049998504 0.0049998923 0.004999962 0.004999948 -0.0049999557
0.004999972 -0.004999939 -0.0049999356 -0.0049999645 -0.004999467 -0.004999912 0.004999803 -0.0049999747

conv_layers.0.skip_layer.lin.weight f4 [16, 32]
00000000: e383 4fbb d7e5 9cbb 3609 19be f7a6 933e
00000010: ca98 2fbe e514 7bbe 14cb 0d3e 401c 94be
00000020: d773 5f3d 0839 db3d 291a 883e 7714 3dbd
00000030: ce36 0c3e 2870 873e 3f4b 50be 1c2d 063d
00000040: 4221 f6bc 1fd2 a53e 0d9d a73e 7b75 1f3e
00000050: 7271 9abe 05b7 98be 8b5a 933d 7930 31bb
00000060: f630 80be 2d33 a03e 6f31 c9bd 9ea9 a63e
00000070: b5ba b0bd 5939 b7be b8af 68be 9a0d e93d
00000080: f612 833e db81 6bbc 22ea f2bd 423a 18be
00000090: 1d71 ce3d c651 89bd 9765 2c3d d11f 893e
000000a0: d9e8 a1bd 845c b63d 5fc9 043e 9af7 253e
000000b0: bd5c 5ebe a807 723e 97af 833e 2636 67be
000000c0: 1fd6 5abe 2489 d4bc e720 363e d63b 10be
000000d0: b7b5 973e f4f3 4abd 7308 0d3e 7eee c83c
000000e0: 1698 893e 9150 4d3e 0d40 d9bd 088b a13e
000000f0: e244 b6bd ade6 cbbc c9e0 953e f8e4 4ebd
00000100: 5b20 97be cc7b e53d c90b 4abd d3e1 01be
00000110: 4d80 c6bd be19 1dbe 0e06 55be 72d7 5f3e
00000120: f37b 263e 0059 063b 37f7 193e fa2e 8d3e
00000130: d5b7 993e b0c0 223e 7b06 67be a956 81be
00000140: d9f9 6e3e 22e1 dfbd 459a abbe 61bb 47be
00000150: 17ae 25be bc68 1b3e b91e ccbd 8c01 05be
00000160: c03a fcbd a094 b03e 1905 39be c243 62be
00000170: ff13 593e 0ff5 813e 6898 753e 223b 903c
00000180: d904 a0be 622b 76be ad3d 2e3e 776a 5fbe
00000190: 15cc 303e 6023 a2be 890a 50be ac66 42bd
000001a0: 3a3f 823e 871a abbc c323 bfbd ea56 d8bd
000001b0: 51c2 98be ae19 15bd 7c21 f53d b20e fd3d
000001c0: 3ee2 6f3e dc32 86be d1c9 49bd f7d2 5bbe
000001d0: b8b0 93be 4cfc 19be 7868 abbe 6bce 383e
000001e0: 65a0 98be d398 5e3e d373 ba3d 1a9d 6c3c
000001f0: 42f9 03be 0532 853e 806a 51be f9e6 68be
00000200: 06aa 76bd 3c7f 433d fcab 85be cd35 efbd
00000210: a764 87be ef2f c03c a4fb 933e d50d 89bd
00000220: f326 a0be 024f 11be 6fbe 203e acb0 0c3e
00000230: 325b ce3c b9dc 26bd f7f9 afbe 9cd3 59be
00000240: d3e9 0ebd 4c44 023e 07f3 85be ffe9 63be
00000250: 5ee5 38be 3be1 383e 4e36 66bd 5463 133e
00000260: 3c1b 513d ad91 97be 9793 0c3e 97f7 283e
00000270: 7e6a 453e 62ee ae3e 299a 733d 3c59 83be
00000280: a016 fe3d 9e5a debc c3c7 97be 35aa 8fbe
00000290: a502 a33d b96a df3d d766 6b3e 2b51 8c3d
000002a0: 5701 ae3e ddeb b1bd cba5 453e bd0a 6abe
000002b0: c35f 4c3d 4577 8dbe 956a 75be f04e 5cbe
000002c0: 7160 83be 0d17 96bd 77ab 0e3e a4b2 8dbd
000002d0: 8269 883e 8b99 313d 9f45 db3c 5ba1 7bbc
000002e0: 39e5 2bbe 7525 09bd 42a2 7cbe 7640 87be
000002f0: 8db8 34be 4996 85be 2666 67be b6c3 eabd
00000300: 6b98 82be 3ba9 52be c61a a33e d3fd 4f3e
00000310: 6da3 8bbd 9505 5cbe f6c6 123e 14d3 91be
00000320: 53ec 483d ff75 213e 7897 7f3d bb1f 923e
00000330: df8b 05bd adf6 a3bd f53d aebe 4dfd 5abe
00000340: 658b 9abe ba2a d73d 50e9 9f3e 3d27 c83d
00000350: 742a 6a3e 81d0 a1be 271c 943e 304e 84be
00000360: 410f e63d c3e2 febc 0e39 44be 9e19 1f3e
00000370: 9b79 4ebe b7f9 8dbd 5cb6 9dbe be66 aebe
00000380: 709b 2dbe f52d 37be 5495 81bc 0fe2 58bc
00000390: 1fef 8fbe 9252 403e 03f8 f1bd d2bd 97be
000003a0: 6704 14be fab8 8a3e 5028 ebbd 7dda adbe
000003b0: 002e 4f3b 071e 86be aa30 ffbd d815 9e3e
000003c0: 3705 37be f2fa 2d3e ef77 33bb cc28 8e3e
000003d0: 2c12 5fbe 9e69 93be bf57 433e 24c0 383e
000003e0: f0af aabe 062b a3be 2e52 95be 022e 99bc
000003f0: 6298 a8be 3610 eebd cade ebbd 6e2f e1bd
-0.0031664304 -0.004788141 -0.1494492 0.28838322 -0.17148128 -0.2451969 0.13847 -0.28927803
0.054553833 0.10704237 0.2658246 -0.046162095 0.13692781 0.26452756 -0.20341204 0.032757863
-0.030045155 0.32386872 0.32737008 0.15572159 -0.30164677 -0.29827133 0.07195004 -0.0027036949
-0.25037354 0.31289044 -0.09823882 0.32551283 -0.086293615 -0.3578594 -0.22723281 0.113795474
0.25600404 -0.014374222 -0.118610635 -0.14865974 0.100801684 -0.0670505 0.04208907 0.26782086
-0.0790574 0.08904365 0.12967442 0.16207734 -0.21715064 0.23635733 0.25719902 -0.2257925
-0.21370743 -0.0259443 0.17785989 -0.14085326 0.29630825 -0.049549058 0.13772754 0.024527784
0.26873845 0.20050265 -0.1060792 0.31551385 -0.08899857 -0.024890268 0.2927306 -0.05051133
-0.29516873 0.11205253 -0.049327645 -0.12683801 -0.0969244 -0.15341851 -0.20803091 0.2185953
0.1625822 0.0020499825 0.15035711 0.27574903 0.30023065 0.15893817 -0.22561066 -0.2526143
0.23337497 -0.109316126 -0.33516136 -0.19505073 -0.16179691 0.15176672 -0.099667974 -0.12988871
-0.12315893 0.34488392 -0.18068351 -0.2209616 0.21199034 0.25382277 0.2398392 0.017606322
-0.31253698 -0.24039987 0.17015715 -0.21817957 0.17265351 -0.31667614 -0.20316519 -0.047461197
0.25438863 -0.020886673 -0.09332993 -0.105634525 -0.29835752 -0.036401443 0.11969277 0.123563185
0.23426148 -0.26210678 -0.049264733 -0.21467195 -0.28845763 -0.1503765 -0.3347814 0.18047492
-0.2980987 0.21737985 0.09104123 0.014441753 -0.12888053 0.26014724 -0.20450783 -0.22744359
-0.06022074 0.047728762 -0.26107776 -0.116801836 -0.2644398 0.023460357 0.28902924 -0.066920914
-0.31279716 -0.14190295 0.15697645 0.1373927 0.02518997 -0.04073784 -0.34370396 -0.21272129
-0.03489096 0.12721366 -0.26161978 -0.22257231 -0.18056247 0.18054669 -0.056204133 0.1439336
0.051051363 -0.2960333 0.13728176 0.16500698 0.19278905 0.34166247 0.05947319 -0.25654018
0.12406659 -0.027142819 -0.29644594 -0.28059545 0.07959489 0.109090276 0.22988449 0.06851419
0.33985397 -0.086875655 0.19301526 -0.22855659 0.049896013 -0.27630058 -0.23966439 -0.21514487
-0.25659516 -0.07328615 0.13932596 -0.069188386 0.26642996 0.04335932 0.026766596 -0.015358294
-0.1678666 -0.033482987 -0.24671271 -0.26416367 -0.17648526 -0.2609122 -0.2259756 -0.1146311
-0.2550691 -0.20572369 0.31856364 0.2031167 -0.0681828 -0.21486504 0.1433371 -0.28481352
0.0490535 0.15767668 0.06240031 0.28539833 -0.032604095 -0.08006034 -0.34031644 -0.21385689
-0.30184475 0.10506196 0.3123269 0.09773109 0.22867757 -0.31604388 0.2892773 -0.25840902
0.11233378 -0.031113988 -0.1916239 0.15537116 -0.20163576 -0.06932395 -0.30803192 -0.3406276
-0.16953826 -0.17888625 -0.015818276 -0.01323749 -0.28112122 0.18781498 -0.118148826 -0.2963701
-0.14454804 0.2709425 -0.114822984 -0.33955756 0.0031613111 -0.26194784 -0.12460454 0.3087604
-0.17873083 0.1699026 -0.0027384718 0.277655 -0.21784276 -0.28791517 0.19076441 0.18042046
-0.33337355 -0.31868762 -0.2916426 -0.018698696 -0.3292876 -0.11624186 -0.11517103 -0.109953746

conv_layers.0.skip_layer.lin_edge.weight f4 [16, 2]
00000000: 1958 93bd fa98 15be b13f 073f 196b 0e3f
00000010: 1ece 07bf 773c eabd 47da 9bbe b541 ac3e
00000020: 37ac 023e 9847 cebd efca 42be cd19 e5bd
00000030: 6b97 e2be 3348 a93e d735 d83e e6ef efbe
00000040: 1fd5 213e 48b6 ca3e ca50 dfbc 7b48 fabe
00000050: 6f87 96be 63ef a7be 904a 07bf a7e9 07bf
00000060: 6b01 73bd aba7 80be 0e3a c13e 252d f6be
00000070: ce2b b13e 6c2f 113f 16db ca3e 4082 08bf
-0.07194538 -0.14609137 0.5283156 0.5563217 -0.53048885 -0.11437314 -0.3043997 0.3364388
0.12761007 -0.10072249 -0.19022726 -0.11186562 -0.44256148 0.33062896 0.42228577 -0.46862715
0.15803955 0.39592195 -0.027260203 -0.48883423 -0.29400203 -0.32799825 -0.5284815 -0.530909
-0.059327524 -0.2512792 0.37739605 -0.48081318 0.34603733 0.56712985 0.39620274 -0.53323746

conv_layers.1.std_layer.att_src f4 [1, 1, 16]
00000000: 3ffb 11bf bd8d e03d 5538 623d 8c16 31be
00000010: 8593 e33e eec4 d23e 3e31 84bd a5ba 85be
00000020: 4f7d 593e 1c78 98be 7138 bc3d 9509 453e
00000030: ce63 58be fec4 283e 3d7a c8bd e987 05bf
-0.57023996 0.109645344 0.055229504 -0.17293757 0.44448486 0.4116587 -0.06454705 -0.2611896
0.21239208 -0.29779136 0.09190453 0.19241937 -0.21131822 0.16481397 -0.0978894 -0.5216051

conv_layers.1.std_layer.att_dst f4 [1, 1, 16]
00000000: 054c e2be 31fc 65be 633d bebe e18c 543d
00000010: 9d94 07bf 6845 b9be 9e99 2ebe 45da c53e
00000020: b18b a63e 3062 8bbe 5824 f8be 550f 07bf
00000030: 36b6 313e f21e c6be 67bd f63e 7af5 0b3f
-0.44198623 -0.22459485 -0.3715621 0.051892165 -0.5296114 -0.36185765 -0.17050788 0.3864309
0.3252845 -0.2722335 -0.48465228 -0.5275777 0.17354664 -0.38695484 0.48191378 0.5467144

conv_layers.1.std_layer.att_edge f4 [1, 1, 16]
00000000: ae1b a9bd 840f bcbe 3491 373e 9abe 00be
00000010: 45de f83e e9a4 24be afd6 4fbe e44f 083f
00000020: 3e3a b53e 706c aebc 40a8 b7be d35b edbd
00000030: b97b 09bf 0436 96bc da02 c73e 0e9b 5ebc
-0.082572326 -0.36730587 0.17926484 -0.12572709 0.48607078 -0.16078533 -0.20296739 0.53246903
0.35395998 -0.021291941 -0.35870552 -0.1158978 -0.5370441 -0.018336304 0.38869363 -0.013586773

conv_layers.1.std_layer.bias f4 [16]
00000000: d4d5 a33b 1dd6 a33b 78d6 a33b b3d6 a33b
00000010: cfd6 a3bb 31d4 a3bb 46d6 a33b 74d6 a3bb
00000020: c2d6 a33b 04d5 a33b a3d6 a3bb b4d5 a33b
00000030: 93d6 a3bb 4f84 a3bb 55d6 a3bb 9cd6 a3bb
0.0049998555 0.0049998895 0.004999932 0.0049999594 -0.0049999724 -0.0049996604 0.0049999086 -0.00499993
0.0049999664 0.0049997587 -0.004999952 0.0049998406 -0.0049999445 -0.0049901376 -0.0049999156 -0.0049999487

conv_layers.1.std_layer.lin.weight f4 [16, 16]
00000000: f794 293e 895d 9b3e 5781 0e3e 387e 303e
00000010: cb85 dd3d c17e 39bb 7fef 87be f686 b7bc
00000020: d238 bc3e a303 0ebe d14c 5bbe 3afe 89bd
00000030: 64cf 2abe 67b0 2e3e 4152 a3be 5287 32be
00000040: 59b3 483e 1984 cbbe 5a3d 9c3e 1641 453e
00000050: ba54 afbe 69d2 bdbe 39b1 ed3d 0605 933e
00000060: bc71 95bd afc4 80be 91e5 73be 170f c3be
00000070: 8c53 a6be 523f b63d 3563 25be b624 b73e
00000080: 08d6 0ebe 68b7 49bd 8480 ca3e 3b20 9d3e
00000090: 8760 d3be d753 5b3d a343 8bbd f645 753e
000000a0: 35c0 7c3e 87d4 b23d af67 c63e cc64 36be
000000b0: 5b4a bdbe ee84 5dbe 7c04 dc3d a0b5 6d3e
000000c0: 1eaa 0cbe 7f8b afbe cf84 c83c 7f6e e2bb
000000d0: ef68 3c3e daf7 ca3c ab11 2dbe a33b 453d
000000e0: 06d1 633e a94f 463e ad0a 3a3d 4807 da3e
000000f0: d438 7abd fff0 a8be 37f3 3dbd 9860 b9be
00000100: 569e 9f3e f777 8dbe 4906 183e 95c1 84be
00000110: 547f 03be f0dc 293e 9814 693e 9b95 6a3e
00000120: baf4 c13d b91c a33d 351b a9be 75f4 c0be
00000130: 53f8 15bd 96c8 1d3e 5433 993e 5fa8 4d3e
00000140: 4a40 c13e 13df a3be 8e45 d63e e8f9 183d
00000150: 934a 3f3e d6f5 5e3e eff1 c53e 8af9 0c3b
00000160: 41ed 91be ece0 97be 73c1 81be 2861 ce3e
00000170: bee8 863e e095 62be 1477 9c3e 0670 69be
00000180: ec03 353e ec26 b6be 41de c23d a199 ab3e
00000190: 9aef b6be f016 dc3d f955 4fbe 713e 5dbe
000001a0: 8dc7 8c3e d447 193e af88 8abe 5389 ddbd
000001b0: 0817 96bc 6c7a d7be 1287 bdbd bdbe c8be
000001c0: d02d ccbd 5fda 4abe 6f65 a0be ba92 a03e
000001d0: ff2a b6be 17eb 063e bfce 2e3e 4f7f 3d3e
000001e0: 2806 4e3d 2cf7 a23e a56c 9abe c7cd 02be
000001f0: 908e a03e a4d5 31bd 75b2 803d 8eeb 86be
00000200: e180 24be e860 893e e0b4 aa3d 2395 a3be
00000210: 9733 04be 8f76 783e c496 31be be29 783d
00000220: e43f ea3d 9910 bbbe 2a63 d2be 9296 01bd
00000230: 053c 09be f15f 8dbe 6751 5d3d 3098 eb3d
00000240: aef0 50be 035f 69bd 107d d5be d1de 80be
00000250: 2154 9cbb 5bc1 8a3d 3543 d0be 8854 7abe
00000260: ddf9 d1be c1d7 933e ae4f ad3e 76df e3bd
00000270: ae72 85be 3747 a5be 227c 2fbe dda4 663d
00000280: 5e12 febd 5bcd d73e 0b29 ffbb 71e9 30be
00000290: 9a30 933e 365b 583e 4f39 a33e 7d9f b5be
000002a0: 2267 423c 0245 53be 0f31 d03e ba68 873e
000002b0: 609e 8b3e 1a8a a8be 9a6e acbe 9d6f b63e
000002c0: 967b 9f3e 5af4 c73e 8a59 f23d 584f 89be
000002d0: 406b 4abe 3f3e 2c3e 79a8 dcbd 2716 30be
000002e0: f50c 1dbe 7764 ecbc 40fe 723c a948 8c3e
000002f0: 0653 b13d 6985 5cbd 50cd 51be eabc 723e
00000300: 75ee be3e b511 9b3d f9b0 9dbd b0fb 04be
00000310: 6d62 9a3e c58b 973c 789c d7bd 8584 d9be
00000320: 6ec4 c1bd 9afb 8a3e 6d74 d13e 0b7f 26bc
00000330: 4f8d 923e df66 d03e 1a4f 00be 91f5 ac3e
00000340: a155 43be 1233 0ebe ca7f 5c3e a3ab 1b3c
00000350: 0c2d 823e 8e35 dabe 1c14 66be c975 f8bd
00000360: b62b bc3e e786 66be 6226 69be aaa6 79be
00000370: 4a84 cc3d 7129 223e 1911 99be 7121 203e
00000380: 06c9 c63e f3a1 ae3e db8a d0be 361a b1be
00000390: aaa8 303e 213b a8be 5999 a13c 38a3 913d
000003a0: f0ff 55be 1986 89bd e89f 6bbe 051f 8bbe
000003b0: 2b3f 2e3e 29d4 c23c 9dcb 4cbd f879 1fbe
000003c0: ba05 84be 60ba 413e c38a 28bc 22d7 9e3d
000003d0: f9af a6be c1af 8d3e 8d30 ba3e f7e5 da3d
000003e0: bb86 273e e68e 913e e531 11be c5f6 c9be
000003f0: a8e9 39be eb01 dcbd e318 483e c147 19be
0.16560732 0.303448 0.13916527 0.17235649 0.108165346 -0.002830431 -0.2654991 -0.022403222
0.367621 -0.13868575 -0.21416022 -0.06737943 -0.16680676 0.1705948 -0.31898692 -0.17434433
0.19599666 -0.3974922 0.30515558 0.1926311 -0.3424433 -0.37074593 0.11606068 0.2871477
-0.07297084 -0.25150058 -0.23818041 -0.3809745 -0.32485616 0.08898796 -0.16151126 0.35770196
-0.13948834 -0.049247175 0.39551175 0.30688652 -0.41284582 0.053546753 -0.0680001 0.23952469
0.24682696 0.087319426 0.3875098 -0.17811888 -0.3697079 -0.2163274 0.10743043 0.23213816
-0.1373677 -0.34286115 0.02447739 -0.006910145 0.18399404 0.024776388 -0.16901271 0.048152577
0.22247705 0.19366325 0.045420337 0.4258368 -0.06108935 -0.32996365 -0.046374526 -0.36206508
0.31175488 -0.27630588 0.14846148 -0.2592894 -0.1284154 0.16588187 0.22761762 0.22908632
0.09470506 0.07964463 -0.3302857 -0.37686506 -0.036613774 0.15408549 0.29921973 0.2008376
0.3774436 -0.3200613 0.4184994 0.037347704 0.18680792 0.21773466 0.38661143 0.0021511042
-0.28501323 -0.2966379 -0.25342903 0.403085 0.26349443 -0.22127485 0.305596 -0.2279664
0.17677277 -0.3557657 0.09515048 0.33515647 -0.35729676 0.107465625 -0.2024764 -0.21605851
0.27495995 0.14968807 -0.27057406 -0.10817208 -0.018321529 -0.42085588 -0.09254278 -0.39208022
-0.099696755 -0.19809864 -0.31327388 0.31361943 -0.35579678 0.13175617 0.17071055 0.18505596
0.05029884 0.31829202 -0.30161014 -0.1277381 0.31358767 -0.043416634 0.06284038 -0.2635159
-0.16064788 0.26831746 0.083352804 -0.3194972 -0.12910305 0.24263977 -0.17342669 0.060586683
0.114379674 -0.365361 -0.4109128 -0.031637736 -0.13401802 -0.2761226 0.05403271 0.11503637
-0.20404312 -0.056975376 -0.41696978 -0.25169995 -0.004770771 0.06775161 -0.40676275 -0.24446309
-0.41010943 0.28875545 0.33849853 -0.11126606 -0.26064056 -0.32280895 -0.17137197 0.05630957
-0.12405847 0.4214886 -0.007786875 -0.17276551 0.28748018 0.21128544 0.3187966 -0.35473242
0.011865409 -0.20631793 0.4066243 0.26447088 0.27269268 -0.32917863 -0.33678132 0.3563203
0.31148976 0.39053613 0.118334845 -0.26818347 -0.19767475 0.1682062 -0.10774321 -0.1719595
-0.15336974 -0.0288565 0.014831126 0.27399185 0.086584136 -0.053838167 -0.20488477 0.23704877
0.37291303 0.07571737 -0.076997705 -0.12986636 0.30153218 0.018499264 -0.10527891 -0.42483917
-0.09461294 0.27145082 0.40909138 -0.010162125 0.28623435 0.40703484 -0.12530175 0.33781102
-0.19075634 -0.1388667 0.21533123 0.009501371 0.25424993 -0.42618984 -0.22468609 -0.12131841
0.367521 -0.22512399 -0.22768548 -0.24379984 0.0998617 0.15836121 -0.29895857 0.15637757
0.38825244 0.34107932 -0.40730938 -0.3459031 0.1725184 -0.32857612 0.019726442 0.0711121
-0.20898414 -0.0671503 -0.23010218 -0.27172104 0.17016284 0.023782806 -0.04999887 -0.15573871
-0.2578562 0.18918753 -0.01028699 0.07755877 -0.3255613 0.27673152 0.36365166 0.106883936
0.1635999 0.28429335 -0.1417919 -0.39446083 -0.18155539 -0.10742553 0.19540744 -0.14968778

conv_layers.1.std_layer.lin_edge.weight f4 [16, 2]
00000000: d438 eabe 7cd4 32bd bc24 c13e f632 99be
00000010: 3208 83be 34ab 63be 0e02 613e 8cbf cf3e
00000020: 6885 f23e 4728 02bf 9c61 d93e 7133 b5be
00000030: c08e d9be 2a98 fabe 603c 94be 0d80 043d
00000040: 1e6a bebe 7ba3 193e 41b9 2ebe cc78 aa3e
00000050: 33b0 60be 54de b8be efb2 893e 4d1f 863e
00000060: dbdd bdbd 5480 023f 4609 63bd d4ec 52bd
00000070: a70a 09be 503a 333e ca5c 173e 3915 d1be
-0.4574648 -0.043659672 0.3772334 -0.29921693 -0.2559219 -0.22233278 0.2197344 0.40575826
0.47367406 -0.5084271 0.42457283 -0.3539081 -0.42491722 -0.48944217 -0.28952312 0.03234868
-0.37190336 0.15003769 -0.17062856 0.33295286 -0.21942215 -0.36107123 0.26894328 0.26195756
-0.09270831 0.50977063 -0.055428766 -0.05149539 -0.1338297 0.17502713 0.1478149 -0.40836504

conv_layers.1.skip_layer.att_src f4 [1, 1, 16]
00000000: 4a07 2dbe 2fca b4be bbcc d43e 9604 99be
00000010: 1ffc 6abd 66d7 6d3e 93c6 6ebe c964 bfbe
00000020: 497a e4be 2d2e 063e cea2 11be d09c f53e
00000030: bd9b 013e c2c3 3b3e b058 f03e cc6c 33be
-0.16897312 -0.35310504 0.41562447 -0.2988631 -0.057369348 0.23226699 -0.23317938 -0.3738158
-0.44624546 0.13103552 -0.14222261 0.479712 0.12657066 0.18336394 0.46942663 -0.17521971

conv_layers.1.skip_layer.att_dst f4 [1, 1, 16]
00000000: c95f b73e 0f65 763e e279 f73d 3353 8e3d
00000010: ff06 a83e 3c41 0d3f 115f 3ebe a651 853e
00000020: 3d68 28be b28e ce3e 51d0 143f b792 c0be
00000030: 3687 083d 2faf 45be 1904 b2be 21b2 f93d
0.35815266 0.24061988 0.12083794 0.06949463 0.32817838 0.55177665 -0.18590952 0.26038855
-0.16446014 0.40343243 0.58130366 -0.37611935 0.033332072 -0.19305108 -0.3476875 0.121921785

conv_layers.1.skip_layer.att_edge f4 [1, 1, 16]
00000000: 797e f3be 6625 d53d 4382 6b3e fc83 223e
00000010: 375e 0d3f a96c 78bd 2fc9 ecbe 412b f3be
00000020: ff04 8ebe 3211 083e 7b0b 01be 8801 26bc
00000030: b848 be3e 8534 433e 15a9 9ebe 2acc 133f
-0.47557428 0.10407524 0.2299891 0.1587066 0.55221885 -0.0606505 -0.4624724 -0.47493938
-0.27738187 0.1328781 -0.12602036 -0.010132201 0.37164855 0.19063003 -0.30988374 0.57733405

conv_layers.1.skip_layer.bias f4 [16]
00000000: 87d6 a3bb d7d6 a33b e5d6 a33b 9bd6 a33b
00000010: 86d6 a3bb dbd6 a33b d8d6 a33b 82d6 a33b
00000020: 66d6 a3bb d6d6 a33b d3d6 a3bb ead6 a33b
00000030: e3d6 a33b dbd6 a33b efd6 a33b a8d6 a3bb
-0.004999939 0.004999976 0.0049999827 0.004999948 -0.0049999384 0.004999978 0.0049999766 0.0049999366
-0.0049999235 0.0049999757 -0.0049999743 0.004999985 0.0049999817 0.004999978 0.0049999873 -0.0049999543

conv_layers.1.skip_layer.lin.weight f4 [16, 32]
00000000: 5d86 b03e 1641 0cbe f56a 18bd 3861 80be
00000010: 274f 9a3e 0a00 4b3e 74e0 283d 7175 2fbc
00000020: cd83 69bd 3919 243e 8790 8c3e 0e4f d63d
00000030: 0bfe afbe 468b 7b3d 7bf1 3f3e f203 0fbe
00000040: 5a8c 20be 8bf1 ae3e 55bf dbbd db35 8d3e
00000050: 30cb 7b3d 9ed9 a5be 4808 573e 3138 28be
00000060: ddef adbe f59f 3f3e 9a77 2ebc f3b0 8fbe
00000070: 197e c83d ea74 643d 648c aebd 40be 8b3e
00000080: bbb1 203e e9c2 533d 2f7e a9bd c067 8d3e
00000090: aae1 593d a8d8 8f3d 700c 343e 8f91 023e
000000a0: 24f4 03be 330e 84be 86f1 213e 3c6f e33d
000000b0: 5a2e 4bbd 6ea4 d4bd cc1b c7bd 7a7a b6be
000000c0: bb9e 81bd fdfc 663e a623 2d3c 1731 973d
000000d0: f46a 44be 197e fabd 5682 8e3e 2f0d b5bd
000000e0: 8b30 a83d 04ed 183c eced 553c b759 963e
000000f0: ca74 f63d 9c11 343e 566c 463e d926 dbbd
00000100: db4f 0a3e bf00 c9bd d659 6c3e 016d 933e
00000110: 693b 733e f34f 96bd a8b0 a83d 4534 9dbd
00000120: b225 983e faeb 0a3d c7dd 80bd 7b26 493e
00000130: b436 abbd 66e4 c3bd da98 853c 5f2c ff3d
00000140: 324a 153e 9a5e 913e 5aa6 7bbe 3acd 8b3d
00000150: e560 c23d bdc0 063e 2f07 813e 4c4c c0bd
00000160: 4566 603d a048 62bd 37b1 cc3d f5d2 8ebd
00000170: 1d51 d23a 9034 b23e e44c 87be 16a0 863e
00000180: 7b03 633b 96e2 203d 924d d4bd 316d 9d3e
00000190: 536e 01bc 6efe 4ebd b94f be3d 7978 f53d
000001a0: e9e0 e73d 93db 6d3e 547a 6cbc 4b74 6bbe
000001b0: 6479 523e 107b 34be 2915 a5be 0de6 3d3e
000001c0: 6063 87be 2339 93be e7ee acbe 7531 633d
000001d0: 74e8 a53d e97a 9f3e f7dd 583c a4bd 8dbe
000001e0: f164 443e ca7d 39bd 3331 693e 8669 61be
000001f0: 69b8 6cbe b140 16be 1ae4 ea3d 4d81 95be
00000200: 12eb cdbd 4a56 993e 03cf 7fbe 0c93 e13d
00000210: e09a 5f3e b748 8e3e 83b6 61bc ef90 b73d
00000220: 341a bf39 1046 afbe ea75 4cbe 8319 273e
00000230: 7c5e 31be db4e f4bd af05 8a3e 16e4 813d
00000240: a2e2 9fbe 063c 1f3e 20d4 903d 91ae 35be
00000250: cdbf 3c3e a3cb 7fbe aba7 373e e5ac cc3d
00000260: 86f3 9cbe 3f42 9dbe 1534 903d c4f9 753d
00000270: 6e6c d63d 7ef5 acbe aa4b 6fbd 7f21 8dbd
00000280: b300 6b3d d617 b33e c5cd 7dbe 3fea 78be
00000290: b04c 283e 048b 6a3d 58a3 8d3e c1fa 5d3e
000002a0: 2843 6abd acbe 9cbe 2948 8dbd 1af8 a83d
000002b0: ecc0 9abe 624b a13e d93c a53e ae6a 9fbe
000002c0: 9feb 763d cfb8 323d 3905 fd3c 50a7 8c3e
000002d0: bace 603d d559 293e 6681 933e 750f b3be
000002e0: 25c4 2cbe 548c 993e af20 853e fff3 8abe
000002f0: 2bbb e0bd f075 86be 4b81 81be d477 023e
00000300: 1021 b9bd e2ad 2a3e 7da0 4dbd 22e2 08be
00000310: 0353 963e b389 753e 9ba7 68bd 09ee 9bbe
00000320: 6bd7 a4be fe44 f5bc 70bb 8cbe 55d0 303e
00000330: 9da3 dabd abb2 ad3d d910 a4bd 4ca6 afbe
00000340: f88d a73e edbc 1b3d 7ee6 b03e 766a c4bd
00000350: 6ae2 c2bb d1bb 7dbe e3f5 c5bc 55dd 62be
00000360: 7855 a23d 423c 9e3e 54bd 203e 873d 843d
00000370: 5a63 f0bd e8fd a93d fcd0 95be 9395 ec3d
00000380: 1e67 823e ab84 63bd 28c5 c53d f8bb 2fbe
00000390: fbfa 61be e012 72be 0312 26be 436d cebd
000003a0: ccfb 3ebd 9844 183d 594a 993d 5bff 12be
000003b0: b397 8b3e 45ba 76bd 10f3 183e deb1 aabe
000003c0: e94b 30bd 7c07 63bd 64a6 7e3e 9e62 6d3e
000003d0: 094c 59be 52fa e03d 62ec a13e 8d4d 4abe
000003e0: 7658 aebe 338b 173c 926b 87be e135 2ebe
000003f0: ca57 763d adc1 83be 0ef1 af3e d335 04be
0.3447751 -0.13696703 -0.037211377 -0.25074172 0.30138513 0.19824234 0.04122968 -0.010709153
-0.05701046 0.16025247 0.27454016 0.10464297 -0.34373507 0.06141212 0.18744461 -0.13966349
-0.1567854 0.34168658 -0.10729853 0.2758015 0.06147307 -0.3239259 0.20999253 -0.16427685
-0.33972064 0.18713363 -0.010648632 -0.2806469 0.09789676 0.05577556 -0.08522871 0.27293587
0.15692799 0.051699553 -0.08276021 0.27618217 0.053193726 0.07023746 0.1758287 0.12750839
-0.12886101 -0.25792083 0.1581479 0.11105201 -0.04960475 -0.10382925 -0.09722099 -0.35640317
-0.063291036 0.22557445 0.010567581 0.0738241 -0.19181424 -0.122310825 0.27833813 -0.08840405
0.08212384 0.009333853 0.013057213 0.29365322 0.120339945 0.17584842 0.19377264 -0.10700769
0.13507025 -0.098145954 0.23081145 0.287941 0.23753132 -0.07339468 0.082368195 -0.07675985
0.2971626 0.03391645 -0.06292301 0.19643585 -0.08360043 -0.09565048 0.016308237 0.12459635
0.14579085 0.28392488 -0.24575177 0.06826253 0.094911374 0.13159461 0.25200793 -0.093895525
0.05478503 -0.05524504 0.099947385 -0.069738306 0.0016045902 0.34805727 -0.2642585 0.2629401
0.0034639526 0.03927859 -0.10366358 0.3074737 -0.0078998385 -0.05053561 0.0929255 0.11985869
0.11322195 0.23228292 -0.014433462 -0.22993581 0.2055412 -0.1762507 -0.32242706 0.18544789
-0.26443005 -0.2875453 -0.33776018 0.055467088 0.081009775 0.3114846 0.013236514 -0.27683747
0.19179131 -0.045285977 0.22772674 -0.2201291 -0.23117222 -0.14673115 0.11469288 -0.2920021
-0.10054602 0.29948646 -0.24981312 0.11014375 0.21836424 0.27789852 -0.013776424 0.08963191
0.00036449882 -0.3423314 -0.19966856 0.16318326 -0.17321199 -0.11929103 0.2695746 0.06342332
-0.31227595 0.15550241 0.0707171 -0.17742373 0.18432541 -0.24980025 0.17935054 0.099939145
-0.30654544 -0.30714604 0.07041184 0.06005265 0.104699 -0.33781046 -0.05842177 -0.068911545
0.057373714 0.34979123 -0.24785526 -0.24308108 0.16435504 0.057261482 0.27663684 0.21677686
-0.05719295 -0.3061422 -0.06898529 0.082504466 -0.30225313 0.31502825 0.32272986 -0.31136078
0.0602833 0.04363328 0.03088628 0.274714 0.05488465 0.16538174 0.2880966 -0.3497273
-0.16871698 0.29989874 0.26001498 -0.2713928 -0.109731995 -0.26261854 -0.25293955 0.12741023
-0.09039509 0.16667894 -0.05020188 -0.13367513 0.29360208 0.2397831 -0.056800466 -0.30455044
-0.321956 -0.029940125 -0.27486753 0.17266972 -0.10675738 0.08481344 -0.08011026 -0.34306562
0.327255 0.03802197 0.34550852 -0.09590618 -0.005947401 -0.24778678 -0.0241651 -0.22154744
0.07926458 0.30905348 0.15697223 0.06457048 -0.117377 0.08300382 -0.29261005 0.115519665
0.25469297 -0.055546444 0.09656745 -0.17161548 -0.22068398 -0.23640013 -0.16217808 -0.10079434
-0.04662685 0.03717479 0.07484884 -0.14355223 0.27264175 -0.060236234 0.14936471 -0.33338827
-0.043041144 -0.05542706 0.2486816 0.2318215 -0.21220411 0.10985245 0.31625658 -0.19756146
-0.34051865 0.009249496 -0.26449257 -0.1701274 0.060142316 -0.257337 0.34363598 -0.12911157

conv_layers.1.skip_layer.lin_edge.weight f4 [16, 2]
00000000: 1177 c63e 224e ce3e fcc6 7a3e af11 f5be
00000010: f41d c33e 9eb5 d33e ba1a ddbe 8e3c a1be
00000020: 33b0 15be 4bf2 52be 9630 043f b141 153e
00000030: 7141 023d affb 11be 07b7 a13e 83c5 8fbe
00000040: 6960 e83e 5341 903e 00df afbd 24bc 12be
00000050: 8c52 dbbe 3f7e c43e 8d30 95be e47f 0f3f
00000060: bf0c e53e dedf cc3e 6889 c43e de5a 87bd
00000070: 22b7 69be 2ae8 c8bd 9305 b03d f1c2 92be
0.38762715 0.40293986 0.24489969 -0.47865054 0.3810879 0.413495 -0.43184453 -0.31491512
-0.14617996 -0.2060024 0.51636636 0.1457584 0.03180069 -0.14256166 0.3158495 -0.28080377
0.45386055 0.28174838 -0.08587456 -0.14329582 -0.42836416 0.38377568 -0.29138604 0.5605452
0.44736287 0.40014547 0.38386083 -0.066091284 -0.22823766 -0.09809907 0.08594813 -0.28664353

conv_layers.2.std_layer.att_src f4 [1, 1, 16]
00000000: 0d96 5abe e904 563d 7f05 4f3d 96fe 603e
00000010: 402e bd3e 0220 04bf 44b9 fabe e1ba cfbe
00000020: 7e2d 113c 97b6 febe 08c3 c9be 0c4b ce3d
00000030: be23 e23e 00d7 233e e696 0fbe e60d 153f
-0.21346302 0.052250776 0.05054235 0.21972117 0.36949348 -0.5161134 -0.4896947 -0.40572265
0.008860944 -0.4974868 -0.3940661 0.10072908 0.44167894 0.15999985 -0.14022407 0.5822433

conv_layers.2.std_layer.att_dst f4 [1, 1, 16]
00000000: bda5 903e d3d4 5e3e 9415 c8be ef00 033f
00000010: 8afb 0bbf ea63 b2be 5376 15bf 433d 4f3e
00000020: 9c16 9c3e 02c4 95be ca0b eebe 4eb9 023e
00000030: 90e9 6bbe 724c 9cbd 24f2 ff3e 4973 b83e
0.28251448 0.21760873 -0.39078963 0.511733 -0.54680693 -0.34841853 -0.58383673 0.20238213
0.30486 -0.29251105 -0.4649337 0.12766 -0.23038316 -0.07631768 0.49989426 0.36025456

conv_layers.2.std_layer.att_edge f4 [1, 1, 16]
00000000: e4ef 063e a1d6 2fbe 5033 e3bd 8b8b 763e
00000010: 8eb9 d7be 8582 f0be f189 cf3e 88a6 abbe
00000020: f942 cbbe 4607 bfbe 6c16 0abf 2877 023f
00000030: abbf fc3e c5ce 11bf 9d9e 6f3c 9d68 fd3e
0.13177449 -0.17171718 -0.110937715 0.24076669 -0.42133754 -0.46974578 0.40534928 -0.3352549
-0.39699534 -0.37310237 -0.53940463 0.5096307 0.4936498 -0.5695613 0.014625219 0.49493876

conv_layers.2.std_layer.bias f4 [16]
00000000: fad6 a33b ced6 a33b cfd6 a33b fbd6 a3bb
00000010: efd6 a33b 2bcd a3bb f0d6 a3bb f7d6 a3bb
00000020: 6bd6 a3bb f6d6 a3bb 83d6 a33b f4d6 a33b
00000030: f1d6 a33b b0d6 a33b f3d6 a3bb ecd6 a3bb
0.0049999924 0.004999972 0.0049999724 -0.004999993 0.0049999873 -0.004998823 -0.004999988 -0.004999991
-0.004999926 -0.0049999906 0.004999937 0.0049999896 0.0049999882 0.004999958 -0.004999989 -0.004999986

conv_layers.2.std_layer.lin.weight f4 [16, 16]
00000000: f005 943e f6b5 66bd 825c dbbd 1a5a ef3d
00000010: cb1d 683e a950 3bbd fa31 c9be 610e 87be
00000020: 00cb 853b 339c d5be 017c a3be b2d9 44be
00000030: 98d2 8e3e 19b7 c63e 8c20 d7be 56cb 593e
00000040: b61c 123e 1298 9dbd 4341 8cbe 09b5 1cbe
00000050: 700f 783e b4ac fcbd a032 c83e 03ec 3fbe
00000060: 16d9 edbd ac6c c13d e3c0 a7be b5b3 a6be
00000070: 53e8 ad3e 5db4 81bd 905b cf3e ecdf 8abe
00000080: 1683 503e 7a77 3d3e 7764 bd3c 6a62 42be
00000090: 9201 8b3e 5d92 233e 8196 763e cf74 67be
000000a0: 3850 b73e dc9f ecbd 61c7 97be c440 8d3c
000000b0: 3709 b3bd fcff fc3d c1d9 00bd 0526 213c
000000c0: 36c6 d43e 9edf b13e 5a6e 9bbd 676b cc3e
000000d0: 708b b0be 1863 c4be 6d17 c83e f591 a93e
000000e0: 9e65 97ba fafb 7a3e c70a d7bb 6e71 8bbe
000000f0: 8c3a 8bbe e7f0 7fbe 24e7 883d 4373 84be
00000100: 7983 5ebd f234 c23e fe1e bcbe 94f6 e73d
00000110: 623f a5be 9857 b1be 8af7 963e e635 9cbd
00000120: 2a63 473e fa28 44bc 3f1b c6be 44e8 21be
00000130: 0fd0 413e e92e a2be 805a c9be 3ef2 c8be
00000140: cc4f a5bd 6ec7 9a3e 60f7 ce3d 5c21 c6be
00000150: a4cd b73e c367 563e 7685 8f3e 5504 803e
00000160: 2f8e c0be b387 2ebe 3754 75be 4136 27be
00000170: 940f a6be 5d7e 693e 7e35 293e 8342 793e
00000180: b188 d0be b83b 4dbe 5e06 d93e e383 b03e
00000190: 6ba8 b6be 2a75 a73b ae37 8e3d 9eab 13bd
000001a0: 1415 933e 29cb c13e 6bd0 39bd e3ab c9be
000001b0: 03ee 9fbd 19a1 d6be 53d3 92be 7e36 7bbc
000001c0: b03b 83be d804 65be 226c 0a3e cabd 963e
000001d0: 718c a0bd bd38 933e 8184 bebd 2b95 b83e
000001e0: b575 263e 2725 82bc daea bfbe dab4 d0bc
000001f0: b7d0 223b c7f0 30bd 8dd9 d73e 53d0 013e
00000200: 3f61 3e3e ac99 66be f773 a5be 6bec 37be
00000210: 67ce 593e 0215 c8be 0e12 a2bd 44cc 6f3d
00000220: ab2b b9be 407d 953e c723 76be 4747 fbbd
00000230: dae6 88be f103 11be 3db9 0d3d 33ae e03c
00000240: 3ee3 2d3d 2215 b1bd 5fce b5be d4a4 6a3e
00000250: 8b53 56be 1405 d0be 711f c9be 55a2 733d
00000260: 1bb6 7fbe 50d4 20be 05ae a4be 56c9 873e
00000270: 6a8c 89be 8daf 8f3e c6a8 373e 930c 80be
00000280: 56a4 be3e f75c 31be 46df b13e 1c49 b6bc
00000290: fb9c a53e f0e3 de3e b628 dabe e40b ba3d
000002a0: ebae aebe 5594 913e 4ab5 8a3d d8a7 43bd
000002b0: 904c 583e 49b0 8e3d 6751 7d3d 4552 b6bd
000002c0: a2d8 a3bc d57d 8abd 0c9d be3e a404 82be
000002d0: 97d0 98bd 6e83 aebd 1bd5 06be fde4 073d
000002e0: fceb c63e 5a61 51be 6fcb d13e e225 d93e
000002f0: 522e caba b9dd edbd 1b60 acbe 8b6a d3be
00000300: 72e8 0d3d 64a3 c53e 27b9 ddbd 8e86 09be
00000310: 9cda a03d 37cc 7ebe aaf8 673d 750f a4be
00000320: 88ab ba3e 81b3 23be b439 c73e 2703 a8bc
00000330: 899e a93e 903e 8dbe 6f69 d8be b697 a1be
00000340: 21ae f43d 1472 c1be 67c6 103e b292 93be
00000350: e8df a2bd 36e8 d0be 37e5 b5bc 3cdb 6c3e
00000360: 5f9b 47bc 878b dc3e c619 793d 19a4 403e
00000370: 06ab 9c3e 6e10 503e de3c 66bd 5b8c 723e
00000380: a641 253d 7c6e a43e 1c2b 64bd 1e4c 4c3e
00000390: 5545 89be 9e21 3cbe 8020 afbd e5f3 27bd
000003a0: d191 b43e c990 48be d3ee 03be d95f eb3d
000003b0: b878 703e a3be 6dbe d741 b23e 80f2 a03e
000003c0: 9656 94be 7c9a bcbe d30e 40be d25f 883e
000003d0: 411e afbd 2ffa c1be b5da 91bd ac68 d2be
000003e0: 97ca 9e3b faac 1cbe 5013 ba3e 4297 923e
000003f0: 4048 283e 8d85 e4bd dc40 bebd 218f 933e
0.2891078 -0.056325875 -0.10711004 0.116871074 0.22667615 -0.04573122 -0.39295942 -0.26378158
0.0040830374 -0.41720733 -0.31930545 -0.19223669 0.27895045 0.38811567 -0.4201702 0.21268973
0.14268765 -0.07695021 -0.2739354 -0.15303434 0.24224639 -0.12337628 0.39101124 -0.18742375
-0.116136715 0.09444556 -0.32764348 -0.3255898 0.33966312 -0.0633323 0.40499544 -0.27123964
0.20362505 0.18502608 0.023119194 -0.18982854 0.27149636 0.15973802 0.2408085 -0.22603153
0.3580339 -0.11553928 -0.29644302 0.017242797 -0.08741992 0.12353513 -0.031457666 0.009835725
0.41557473 0.3474092 -0.07589407 0.3992569 -0.34481382 -0.38356853 0.39080372 0.3311917
-0.001155067 0.24510184 -0.006562564 -0.27234977 -0.27193105 -0.2499424 0.066847116 -0.25869188
-0.0543246 0.3793102 -0.36742395 0.11326328 -0.3227492 -0.3463714 0.29485732 -0.07627468
0.19471422 -0.01197266 -0.38692662 -0.15811259 0.18927024 -0.31676415 -0.3932686 -0.39247316
-0.08071861 0.30230278 0.10105777 -0.38697326 0.3589908 0.2093802 0.2803151 0.25003305
-0.37608477 -0.17043953 -0.23957907 -0.1632929 -0.3243376 0.2280211 0.16524312 0.24341778
-0.40729287 -0.20042312 0.4238767 0.34475622 -0.35675368 0.0051104026 0.06944214 -0.03605234
0.2872702 0.3785031 -0.04536478 -0.39388952 -0.07809069 -0.41919783 -0.28676853 -0.015332816
-0.25631475 -0.22365129 0.13517812 0.29441673 -0.07839287 0.28754225 -0.09302617 0.36051306
0.16255839 -0.015886856 -0.37483865 -0.025476862 0.0024843642 -0.043198373 0.42158166 0.12677126
0.18591784 -0.22519559 -0.32315037 -0.1796128 0.21270142 -0.39078528 -0.079136 0.058544412
-0.3616613 0.2919712 -0.24037085 -0.122694544 -0.26738626 -0.1416166 0.034600485 0.027426815
0.042453043 -0.08646609 -0.3550901 0.2291444 -0.20930307 -0.40628874 -0.392818 0.059480984
-0.24971811 -0.15705991 -0.32164016 0.26520795 -0.2686494 0.28063622 0.17935476 -0.25009593
0.37234753 -0.1732062 0.34740657 -0.022251658 0.3234633 0.43533278 -0.42609185 0.09084299
-0.34117827 0.2843348 0.067728594 -0.04776749 0.21122956 0.069672175 0.06184521 -0.089024104
-0.02000076 -0.06762282 0.37229192 -0.25394166 -0.0746166 -0.08521162 -0.13167231 0.033177365
0.38851917 -0.20447293 0.4097552 0.42411715 -0.0015425181 -0.11614556 -0.33667073 -0.41292223
0.034645505 0.3860122 -0.10826331 -0.13430235 0.078541964 -0.2488259 0.05663363 -0.32043043
0.36458993 -0.15986444 0.38911211 -0.020509316 0.33128765 -0.27586794 -0.4226794 -0.3156106
0.11947275 -0.37782347 0.14138184 -0.28822857 -0.07952863 -0.40802163 -0.022204025 0.23130506
-0.012183039 0.430752 0.060815595 0.18812598 0.3059923 0.20318767 -0.05621039 0.23686354
0.04034581 0.32115543 -0.055705175 0.19950911 -0.2681071 -0.18372199 -0.08551121 -0.04100408
0.352675 -0.19586481 -0.12884073 0.11492891 0.2348355 -0.23217253 0.34815857 0.31435013
-0.2897231 -0.36836612 -0.18755655 0.26635605 -0.08550692 -0.37886187 -0.07121793 -0.41095483
0.004845928 -0.1530036 0.3634286 0.28631026 0.16433811 -0.11158285 -0.09289715 0.28820136

conv_layers.2.std_layer.lin_edge.weight f4 [16, 2]
00000000: 8b05 9b3e eb08 903e ed1b 5d3e 8d7a a6be
00000010: f7f6 9abd 94b9 02bf bf1c 9f3e ab0e 15bd
00000020: 134b 12bf a858 ddbd 9abc 953e d118 e4be
00000030: 42b9 0abf 54e1 edbe ed9c db3e 93df 0abf
00000040: 3618 073f faa6 c5ba bf9c 453e 5e12 89be
00000050: 1682 cb3e 947c aa3d 7b95 9bbe 9fca 23be
00000060: 7236 b8be 4161 adbe 7676 debe 84be 04bf
00000070: c17e 113f e2a4 0d3f c478 a5bb e9c0 a83e
0.30277666 0.28131804 0.21592684 -0.32515374 -0.07566636 -0.5106442 0.3107662 -0.03639094
-0.57145804 -0.108079255 0.29245454 -0.44550183 -0.5418893 -0.46460974 0.42893162 -0.542474
0.5277132 -0.001507967 0.19298075 -0.26771826 0.39747685 0.08324543 -0.30387482 -0.15995263
-0.35979038 -0.3386326 -0.43449754 -0.51853204 0.56834036 0.55329716 -0.005049797 0.3295968

conv_layers.2.skip_layer.att_src f4 [1, 1, 16]
00000000: f5de 01bf 2cff e53e 3de3 a03e 4db9 123e
00000010: fb36 f83e f050 103e 1ad7 973c a51a dbbe
00000020: f4f8 47be 1a01 3bbe 3ef0 6c3e 02fc 00bf
00000030: 1ff7 383e e333 9cbe 14a6 e33e de81 e8be
-0.5073083 0.44921243 0.3142337 0.14328499 0.48479447 0.14093375 0.018535186 -0.42793766
-0.19528562 -0.18262139 0.2313852 -0.50384533 0.18063019 -0.30508336 0.44462645 -0.4541158

conv_layers.2.skip_layer.att_dst f4 [1, 1, 16]
00000000: ee5a 99be f3b5 e13e 7bfa 2bbe 8528 933d
00000010: 5444 0d3e 84ad 9e3e ab94 ea3d d620 d63e
00000020: e22e 0e3f af3c 013e 0d13 6e3e bb92 55be
00000030: d274 b13e 3ccc 4a3e ceb0 da3e 3160 fa3d
-0.29952186 0.4408413 -0.1679477 0.07185463 0.13795596 0.30991757 0.114541374 0.41821927
0.5554029 0.12620805 0.23249455 -0.20856754 0.3465944 0.19804472 0.42713016 0.12225378

conv_layers.2.skip_layer.att_edge f4 [1, 1, 16]
00000000: 27a8 093f 3b72 14bf 855e eebe 6c31 cf3e
00000010: 35f4 b0be 8140 8e3e 8be3 363e 56a6 e03e
00000020: d8bb fcbe f7c4 823e 4a84 25be 060e b93e
00000030: f50e 743d 3303 a4be b229 9cbe 91a7 13bf
0.53772205 -0.579868 -0.46556488 0.40467393 -0.34561315 0.27783588 0.17860238 0.43876904
-0.49362063 0.25540897 -0.16163746 0.36143512 0.059584577 -0.3203369 -0.3050056 -0.5767756

conv_layers.2.skip_layer.bias f4 [16]
00000000: e8d6 a3bb fbd6 a3bb ecd6 a33b d6d6 a33b
00000010: a2c8 a3bb 02d7 a3bb eed6 a3bb f5d6 a3bb
00000020: ffd6 a33b bbd6 a3bb fdd6 a3bb 8ad6 a33b
00000030: 00d7 a33b fdd6 a3bb 6fd6 a3bb ffd6 a3bb
-0.004999984 -0.004999993 0.004999986 0.0049999757 -0.0049982825 -0.004999996 -0.004999987 -0.00499999
0.0049999948 -0.004999963 -0.004999994 0.0049999403 0.004999995 -0.004999994 -0.0049999277 -0.0049999948
